models/dqn_model.pth (torch, 180952 bytes, 8 tensors)

fc1.weight f4 [256, 11]
00000000: fc7b 41bf 523e eabe bc46 213e 3594 4b3e
00000010: 5351 eebe 0b78 57be 2f25 613e 5e3b f4be
00000020: 041b fbbd a606 823e 78a1 4c3e e0b0 b23d
00000030: fdd0 75be 278b 18bf cff8 783b 9376 c23e
00000040: c8f0 b73e a7a6 72bd 40e0 d6bd c636 c3be
00000050: 843d 36bf a227 a1bf 2c25 563e 2af6 c43e
00000060: 321a 19bf edc7 ecbd 35d5 1d3e c8fc a9bf
00000070: ec1e 823e 20a9 443e 1f5d 603d f42a b03f
00000080: 789c 4fc0 d531 783e 2bc2 2d3f 9615 3cbf
00000090: 01cb 1abc f8f1 f7bd 6b62 d9bb ba31 4e3e
000000a0: f66e 883d b356 44c0 232a 3fbe 3e16 4dbf
000000b0: ce2f 84bf 4582 8cbd f777 ff3d 0708 4dbe
000000c0: 5ea7 0b3e b54b 863e 2fea 213d 455c 1dbe
000000d0: ebd3 fdbe 17a2 68be efc5 f2bc ecdf dc3e
000000e0: 5a44 bd3e 0b0b 44bf 74d1 453d 2193 c2bf
000000f0: e96a 233d e00e 5cbd 3826 b53e 2a23 b23f
00000100: 349a 1c3e 2eaa 80bb 9fa0 c13d dfac 8cbf
00000110: f045 f63e b88a 86be 113f 073f f0dc 5bbf
00000120: 917e 1c3e 6f44 17be e631 00bf 47fe 4e3f
00000130: 236a 19bf 2490 fabd 2a59 743c 6dff a9be
00000140: 4f77 37bc 2284 9d3a 8fa4 733e f934 983e
00000150: 6de3 2e3f bdd5 ad3e d3a4 c9be e128 263e
00000160: 38b7 d4be 118b 6dbe 14cf 00bd 23f1 10bf
00000170: 2830 c6be 678b d63e 65d5 87be 4030 86bf
00000180: bacc d73e 77ec f1be 8d02 1bbf 7bbf 1c3f
00000190: c2ff afbd 68d0 6a3e 2d46 36be c3e4 023e
000001a0: 96b6 2dbd 06fb 93be 3bc7 503f 7b08 0a3f
000001b0: 901c 463e bd95 fa3e f8ac c23e b25b debe
000001c0: 7e47 1f3f 8e93 a3be 0a66 14be 6416 42be
000001d0: abee 213e f583 04c0 7878 2b3f 4ff9 2b3f
000001e0: 028d 07bf 3154 72bf ded4 583e 8088 8b3e
000001f0: 3ac6 7bbe f5a2 b6bd 73a3 df3d 70c4 293e
00000200: 093e 5dbe 14d2 20be 5c9a 1bbe b4ab c5be
00000210: 4839 f13d eb5c 85bf 4f4c be3e 8a6f 0fbc
00000220: 0267 2d3e 1f62 c9be aad8 d83d 0a64 463f
00000230: 1c83 07be 1b25 9d3e 0128 3d3f 3f30 d7bd
00000240: 3d3f 3f3d 48f2 0e3f 3b86 88bf 3628 153d
00000250: ca2e 6bbf b110 973d affb a4be b6ae 1f3e
00000260: f0e5 103f 6057 c3bf ccd5 ba3e 9015 743e
00000270: 1ad5 403e 9b62 e1be 25aa 40bc 3966 0bbe
00000280: 0249 103e 658e 873e 394d d93d caeb 6dbf
00000290: 2edd 01c0 8404 b63e 31b8 79be 664a 96bd
000002a0: b2c7 573e 034c d73d 01da 2fbf f032 01bf
000002b0: 0029 243e 69ff 8cc0 a534 0cbf 3de0 7cbe
000002c0: f71d e13d 06b3 e93b 6f03 03be c5a9 ffbe
000002d0: 4235 c43d 308c 833e 039a d4bd 0530 89bf
000002e0: c6c5 04bf 0163 b2be f5b5 3cc0 7722 213f
000002f0: 42ae 8b3e 34b9 b4bd 0ba6 10bf 9436 18be
00000300: 51e7 383e deb3 9cbe ccb1 7fc0 a8ec 593f
00000310: f149 7b3e c764 133f 2f9f da3e 0be1 ce3e
00000320: cef9 86be 89ab 4c3e ec96 b3be 419f 00be
00000330: 861f 53bf f352 0fbf d4a4 23c0 60cd a4bf
00000340: afa6 a0be 327e 793e 21a0 53bd df79 9ebe
00000350: b566 a9bd 874b a53e 604b 043e db5b 40be
00000360: ca92 6b3f 5a80 00bf 7009 73bd 2a4d 7bbe
00000370: 8d7e 563f 3539 7a3e 6359 b73d cb5a 353d
00000380: 2b86 febe e906 43be 85b8 aebd 9992 98bd
00000390: 8096 913e bd84 8f3e 9c0d 1dbf ef67 d8bd
000003a0: 24b6 cdbe 13dd f9be 80ff 803e 5b8e 0a3e
000003b0: 7667 0ebe edc7 04bf f3e3 90be 9c52 673e
000003c0: 0252 803f 02dd a03e 6b7b 3ebf 5550 dfbd
000003d0: 1ade 2f3f 7ff5 9bbe c96d c5be 5639 b43e
000003e0: af40 96be 18c1 863e 4432 d33c df4f 5fc0
000003f0: 730f 383d 043a 16bf 23b3 32be cce4 c93d
-0.7557981 -0.45750672 0.1574964 0.19880755 -0.4654642 -0.21041887 0.2198684 -0.47701544
-0.12261012 0.25395697 0.1998347 0.087251425 -0.24005504 -0.5958733 0.0037990098 0.3798109
0.3592589 -0.059240963 -0.10491991 -0.38127726 -0.71187615 -1.259022 0.20912617 0.38469058
-0.59805596 -0.1156157 0.15413363 -1.3280268 0.25414217 0.19205141 0.054776307 1.3763108
-3.243925 0.2423776 0.678744 -0.7347044 -0.009447814 -0.12106699 -0.006634047 0.20136157
0.06661789 -3.0677917 -0.18668418 -0.80112064 -1.0327089 -0.068607844 0.12474053 -0.20022593
0.13638064 0.26229635 0.039529976 -0.1536723 -0.49575743 -0.22718082 -0.029635398 0.4313959
0.3696621 -0.7657935 0.048295453 -1.520115 0.03989688 -0.053725123 0.3538072 1.3916981
0.15293199 -0.003926537 0.09454464 -1.0990256 0.48100233 -0.2627771 0.52830607 -0.85884
0.15282656 -0.14772199 -0.5007614 0.80856746 -0.59927577 -0.12234524 0.0149138365 -0.33202687
-0.011197879 0.0012017528 0.23793243 0.29727915 0.68315774 0.33952132 -0.39383563 0.16226532
-0.41546035 -0.23197581 -0.031447485 -0.56617945 -0.38708615 0.4190323 -0.26529995 -1.0483475
0.4214838 -0.4725072 -0.6055077 0.61229676 -0.08593704 0.22931063 -0.17800207 0.12782578
-0.042410456 -0.28902453 0.81554 0.5391919 0.19346833 0.48942366 0.3802259 -0.43429333
0.62218463 -0.31948513 -0.1449205 -0.18953854 0.15813701 -2.070554 0.66980696 0.6717729
-0.52949536 -0.94659716 0.21174952 0.2725258 -0.24587336 -0.089178 0.10919847 0.16578841
-0.21605696 -0.15705138 -0.15195602 -0.38607562 0.11778504 -1.0418981 0.37167594 -0.00875462
0.16933826 -0.39332673 0.105882004 0.774964 -0.13233608 0.30692372 0.73889166 -0.10507249
0.046691168 0.5583844 -1.0665964 0.0364153 -0.9186827 0.073762305 -0.3222327 0.1559399
0.56600857 -1.526104 0.3649124 0.2383635 0.18831292 -0.44020543 -0.011759316 -0.13613214
0.1409035 0.26475826 0.10610432 -0.9293791 -2.0291247 0.3555032 -0.2438667 -0.07338409
0.21072271 0.10512545 -0.6869202 -0.5046835 0.16031265 -4.406178 -0.5476783 -0.24694915
0.109920435 0.007131937 -0.12794279 -0.4993421 0.095804706 0.25692892 -0.10380938 -1.0717779
-0.5186428 -0.3484116 -2.9486058 0.62943214 0.27281386 -0.08824387 -0.5650336 -0.1486457
0.1805699 -0.30605978 -3.9952269 0.85126734 0.24539925 0.5757565 0.42699572 0.4040607
-0.2636246 0.1998731 -0.35076082 -0.1256075 -0.82469976 -0.55985945 -2.5569353 -1.2875175
-0.3137717 0.24364546 -0.051666383 -0.30952355 -0.08271543 0.32284185 0.12919378 -0.1878504
0.9202086 -0.5019585 -0.059335172 -0.24541155 0.8378685 0.24435885 0.08952596 0.04427604
-0.49711737 -0.19045605 -0.08531288 -0.07449836 0.28435135 0.2803096 -0.6134889 -0.10566699
-0.40178025 -0.4880148 0.2519493 0.13530867 -0.13906655 -0.5186756 -0.2829891 0.22590107
1.0025027 0.31418616 -0.7440707 -0.10903994 0.68698275 -0.30460736 -0.38560322 0.35199994
-0.29346225 0.26319194 0.025780804 -3.48925 0.04493661 -0.58682275 -0.17451148 0.09858093

fc1.bias f4 [256]
00000000: b895 963d 8df7 cf3d 08a1 9fbe 415c 3cbe
00000010: 38d3 b03e 6ad8 1dbe f039 d33c 3895 2f3e
00000020: 032b 42bc b0bf e8bd 40e2 03bf d853 dc3c
00000030: c545 efbd 4be0 a3bd b384 8fbd 5e3e 143e
00000040: cf63 f43d a316 4bbe 100a 36be 0928 2b3e
00000050: 9c61 edbe b8c1 da3e 4f74 7cbe 947f 1fbe
00000060: 6b45 a33e 44cd 9f3e a96a 48be 742e 98be
00000070: 06ec 90bc 512b 90be 581f 383e b133 943c
00000080: 98b2 b2be 155d 01bf 4013 96bd 362a 1ebf
00000090: adb1 583c 2def c73e d6be 803d 25e4 263c
000000a0: fea3 41be b9d8 9cbe 1d17 803c ab95 0cbf
000000b0: 9b60 6a3d f5b6 e8bd 9e78 843e e1b0 3fbe
000000c0: 1de7 2abd ddc6 493d 6892 6fbe ecac 593d
000000d0: 4b6b 8fbe 521f 72be 7087 95bd 6327 17be
000000e0: 76c7 653d c864 333c d504 b63e 4c95 77be
000000f0: e46e 263e daa0 29bd 69b7 a5bd b057 14be
00000100: f8eb 583e 1c67 2bbf c5cc 6cbe f57a 1abd
00000110: 23d2 f13d 193c 853d 14d3 36bd b7b9 09be
00000120: 46ef 5fbe 5e2a afbd 155c 3fbe 27d6 95bd
00000130: 2f1e e1ba bc69 973c ea5b 06be 621d b93d
00000140: ed7f 113e f1f4 e33c 39c1 98bc cc8f 8fbe
00000150: 8012 d13e a824 96bd b260 5c3e 063f 5d3e
00000160: 99df 4fbe cfc5 b8be e19a 25bc e7bd 82be
00000170: e415 803e dae3 883e d4d8 33bd 18d7 33ba
00000180: 3696 8c3e 9dbb c5bd 586c 123d b450 df3d
00000190: 86e3 183c dbcd 59bd 8387 e6be b36b 2b3e
000001a0: db8f 92be 0aee 5abd 488d dc3d c0ff 203e
000001b0: f084 7d3e ecec 443e 8f13 bcbe c30e e8be
000001c0: 4ccd 59be d346 41be 06b4 11bf 738b f3be
000001d0: a370 9e3d b1e4 1c3c e991 de3d 365c 12bf
000001e0: ae8d 30be fd19 81be 0aa5 17be c09d 99be
000001f0: ad6a 00bf d1e2 72be b9c7 15bd e9f6 72be
00000200: 00a1 29be 49b2 9f3d 6ab2 15bf 45d8 4cbe
00000210: 385b 2f3e 389b c6be 534e efbd 04d0 483d
00000220: a72f 98bd aa80 b73e 6f23 b0be 59a4 30bd
00000230: 4ed3 3cbe 4d0b 55be c954 bd3c 88e3 6c3d
00000240: 8825 1d3c c9dc f4bd 027c 173e d6ba 8cbe
00000250: c41f afbe 0db5 433e 1654 a5bd d0d8 6b3d
00000260: 4bbc 55be ed6f 853e c4c9 60be e225 be3d
00000270: 3d35 3dbc 4d38 7abe 84c5 f1be fd2d d2bd
00000280: 9ad5 a8bc fede a1be 5fc5 3dbe c2f7 4c3e
00000290: b0f6 33be 1ee9 9f3d af64 a1be 81af 4abd
000002a0: 8f48 b13c e729 f3bd db2b bcbc 2123 23be
000002b0: bdbc 38be 1a4a 71bd ab56 debe d5ef 77be
000002c0: 4748 1abf 7bb0 0f3e 32d4 79be e374 3abe
000002d0: 8018 923d 4148 1c3f 79b5 473c 7a29 5b3e
000002e0: 6f13 473d 1d0e a6bd 6a2c c1bd 397c 263d
000002f0: f525 f1bd d4d7 553d 4d07 e7bd f763 b43d
00000300: a026 c6be 6566 1abf 1161 2bbe 34af bfbe
00000310: 4d3f 9ebd df05 a0be ee55 603e 3a59 9d3e
00000320: 1977 08be e1a1 f0bd b31a 573c b233 ee3d
00000330: a149 d4be 6ef9 4abe a667 79be eb2f 833e
00000340: e1c9 843e b9f5 96be e784 933e 1725 89bc
00000350: 002d af3e 77f8 7e3e 2bc5 233c 04c6 64be
00000360: 57f9 57be f1d8 0bbe ee66 96be c4fd c3be
00000370: 037b afbe a7ba 603e 9d7f 51be 07fe 5fbd
00000380: b119 9d3d 29e8 fbbc d853 9c3e fb03 61be
00000390: 7b6f b0be 90c0 723c 141f 3ebe a6bf f5bd
000003a0: e81d adbd 697f 0dbe 462f e0be 904b 07bd
000003b0: 8e60 b8be 421d 123e 3b03 fe3d 1267 e8be
000003c0: e001 d5be 029f 6a3e e2ea c2bd b78a 973e
000003d0: 184f ef3d 8ff2 9abe 6016 8cbe a6ed 94be
000003e0: 4b0b 95bd 498f d23d 55b5 84be a599 0abe
000003f0: a845 c3be 8a4a af3d 3745 883d 8703 1cbc
0.07352775 0.101546384 -0.31177545 -0.18394567 0.34536147 -0.15414587 0.025784463 0.17146766
-0.011851075 -0.113646865 -0.51517105 0.026895449 -0.11683229 -0.08001765 -0.07007732 0.14476916
0.119330995 -0.19832854 -0.17777276 0.16714491 -0.46363533 0.4272592 -0.24653743 -0.15576011
0.318889 0.31211293 -0.19571938 -0.2972294 -0.01769067 -0.28158048 0.17980707 0.018091055
-0.3490188 -0.50532657 -0.073278904 -0.6178316 0.013225955 0.39049664 0.06286399 0.01018623
-0.18910214 -0.30634096 0.015636021 -0.54915875 0.057221036 -0.11363021 0.25873274 -0.18719818
-0.041724313 0.049261916 -0.23395693 0.053143427 -0.28011546 -0.2364476 -0.07301223 -0.14761119
0.056098424 0.010949321 0.35550562 -0.24178046 0.16253239 -0.041413166 -0.08091623 -0.14486575
0.21183765 -0.6695421 -0.23124988 -0.037714917 0.118076585 0.06505603 -0.044634894 -0.13449751
-0.2186862 -0.08553003 -0.1868747 -0.07316237 -0.0017175133 0.018483035 -0.13121 0.090388075
0.14208956 0.027826758 -0.018646823 -0.28039396 0.40834427 -0.073312104 0.21521261 0.21606073
-0.2030014 -0.36088416 -0.010107727 -0.2553551 0.250167 0.26736337 -0.043907955 -0.00068603596
0.27458352 -0.09654925 0.035747856 0.10904065 0.00933159 -0.053174835 -0.45025262 0.16740303
-0.28625378 -0.053449668 0.10769135 0.15722561 0.24757743 0.19231004 -0.36733672 -0.45323762
-0.21269721 -0.18874674 -0.5691532 -0.4756733 0.077363275 0.009576009 0.10867674 -0.5717195
-0.17241547 -0.2521514 -0.14809051 -0.30003166 -0.50162774 -0.23719336 -0.036567423 -0.23727001
-0.16565323 0.07797677 -0.58475363 -0.20004375 0.17124641 -0.38790298 -0.11684861 0.049026504
-0.07430964 0.3584035 -0.34402034 -0.043125484 -0.18439981 -0.20805092 0.023111718 0.05783418
0.009591468 -0.11956174 0.14793399 -0.27486295 -0.34203923 0.19112034 -0.08072679 0.057579815
-0.2087261 0.26061955 -0.21951967 0.09284569 -0.0115483375 -0.2443554 -0.47221005 -0.10262678
-0.020609666 -0.31615442 -0.18532322 0.20016387 -0.17574573 0.078081354 -0.31522128 -0.04948378
0.021641044 -0.118732266 -0.02297013 -0.1593137 -0.18040748 -0.05890856 -0.43425497 -0.24212582
-0.60266536 0.14032166 -0.24397352 -0.18208651 0.07133579 0.6104775 0.012189263 0.21402541
0.048602518 -0.08108161 -0.094322994 0.04064581 -0.11774818 0.052207783 -0.112806894 0.08808129
-0.38701344 -0.6031249 -0.16736247 -0.37438357 -0.077269174 -0.3125448 0.2190778 0.30732137
-0.13326682 -0.11749626 0.013128924 0.11630954 -0.41462424 -0.19821712 -0.24355945 0.25622496
0.2593527 -0.29484347 0.28812334 -0.016741319 0.3421402 0.2489947 0.009995739 -0.22341162
-0.2109121 -0.13656975 -0.29375404 -0.38279545 -0.34273538 0.21946202 -0.20458837 -0.05468562
0.07670916 -0.030750351 0.30532718 -0.21974175 -0.34460053 0.014816418 -0.18566543 -0.11999445
-0.0845297 -0.13818134 -0.43786067 -0.033031046 -0.36011165 0.14268973 0.1240296 -0.45391136
-0.41602993 0.22912219 -0.095174566 0.2959802 0.11685008 -0.30263183 -0.2736082 -0.2908756
-0.072775446 0.10281236 -0.25919595 -0.13535173 -0.3813908 0.08559139 0.06653827 -0.009522325

fc2.weight f4 [128, 256]
00000000: 04fb 21bf cb30 0f3c b14f 8abf aca6 b4be
00000010: 3828 c5be ec63 09be 1f10 bd3d f9d5 e2be
00000020: b232 9f3d bc79 1e3d 9bb8 8d3e b653 29bf
00000030: a072 5e3d 0cd7 243d 6ccc 61be c0de 2b3e
00000040: a312 40be 0812 aa3d 2899 5f3e 19e3 88bb
00000050: 4b1c 933e d39f a23e f801 c43d f0a0 4b3e
00000060: 45d5 a9bd 9f06 dabe ec5e 543d e543 ddbe
00000070: e882 8fbe a012 af3e 2bf7 203e 5511 b73c
00000080: 8659 53bf 890e 3e3e 36b8 5f3c af28 f2be
00000090: fcbb f73d a0f5 35be 143b 45be c886 e2be
000000a0: 6e31 6fbe f718 8ebf bd80 993e 4c2f 84be
000000b0: 508f e1bc 4b43 dfbd 4abe 66bc 7d8d 2e3e
000000c0: b545 98be ca89 203f 3ce9 2e3e fa61 cabe
000000d0: 5bc7 a3be 8cdc 90be 78ff cdbd 22ae 2cbf
000000e0: d023 833f 8fbe c9bd e51c 3e3e 7e34 bf3e
000000f0: fd91 00bf 896f 05bf e990 07bf ee20 f1be
00000100: 10da 36bf ae50 733c f2dc 8cbc ddfc 1ebf
00000110: d558 bd3e f47c cdbd cc4b 753d 4ea3 a1bd
00000120: 9e7a 1dbe cee3 e63d 306f c7be d5c6 f5be
00000130: 8b51 40bf 9161 82be 2e89 55bf 2647 ccbe
00000140: 4922 a7bb 2381 a5bc 3f71 573f c4b3 803e
00000150: 4d4d c7be 6b97 c5be 9ed5 88bd 665a 243d
00000160: daaa 093e d90c 29be 05b9 183d 78dd f33e
00000170: 27d7 2fbe ac51 afbd 948b 7b3d 999b 0f3f
00000180: f772 d6be c5aa 5b3d 29d8 313e 59ae 2dbd
00000190: 8e0d 513e e597 e23d b902 44be 2ee8 c43d
000001a0: 986d cf3e a091 253d 1a24 ad3d 353c 40be
000001b0: c092 d4be 593a 38be 911f 0e3f 5a19 be3e
000001c0: 9c6f 7fbe 35eb 0cbc 9be0 933d 1c83 253f
000001d0: 6c69 20bf 330d a6be e841 0bbe 5b7f fd3d
000001e0: ec8e c53e eb6c b83e 6c7b 50bd 2b97 e13b
000001f0: 650c 603e bfdd e5bb f8c7 fdbd 5e43 023d
00000200: 2ea6 413e f638 1e3d 6369 1f3f 190c 053f
00000210: 0f49 08be 8b01 91be 4470 afbd 601b 1ebd
00000220: 13fb bb3e fe51 863b 82a1 903d 35a7 c7bd
00000230: 7eda babf a9b6 51be ac4c 22be 3ee2 2d3f
00000240: ed76 64be e426 cc3d 4b3f 1bbe bad6 08be
00000250: 3d34 01be 7595 1c3e 57c6 c43e ef3e 8cbd
00000260: cefa 833e 4228 44be cf64 00be 759f c33e
00000270: 316c 12be 053e f83e f600 8cbc a987 943b
00000280: 7e44 70be 65de 073f 926e 8fbe f727 5cbf
00000290: 271c fdbe 203f 3ebd 2def 31bf 590f 1b3d
000002a0: b0e4 bbbe 7cf9 003f 056c c3bc a8d6 333f
000002b0: b5b8 413e 78d4 903e 50d5 debd 91f8 f8be
000002c0: d9aa 79bf 0bea 3e3e 2292 f5be 70d9 4d3d
000002d0: de33 45bf a599 85be 58cb 2cbf 1e9f 833d
000002e0: 0fe4 5fbe b632 f3be 6c81 92bf 6d10 ecbe
000002f0: f97a 9cbe 8cfa fabe 6ee2 08bf 8900 90be
00000300: 6199 16bf 9bca 19be c6bd 01bf 0b7e 1dbe
00000310: 34d0 07bf c3ee 2b3e 7dbc 24be 42f1 e7be
00000320: 56b1 983e d68f 26bf 0a35 9b3e b60a 17bd
00000330: c8c0 10bf 1e23 3f3e c914 323d da0e b1bd
00000340: 7177 c4be 67d6 04bf 66d7 813e a0e8 aa3c
00000350: 2fc8 073e 9ac1 403e cd79 12be 1c42 8f3e
00000360: 0b5a de3e d7fb 4abe dd8e 163e 0c3d 81be
00000370: e717 dd3d 826c b9be a8b5 9cbd 1a53 13be
00000380: 15cb ea3e 4bcb 0f3f 46ff 0cbf 3b53 ce3e
00000390: 8fb6 c0bd 3e44 f63e 9eb7 f9be 6525 8c3d
000003a0: 7d03 1bbf 6d20 833e f79c 093f b9e1 4f3e
000003b0: 6a7a a93d 7173 8d3d db5a 7bbd 37d6 5e3e
000003c0: 616e 073e 165b 083d 3fb7 edbe dd59 e1bd
000003d0: 5d6a 7cbe 750f 873e 8fb0 81be d784 923d
000003e0: b5b7 e0bd b547 c9bd af2f 82bd 8bb5 b73e
000003f0: 850a 963e 3cba 0b3e 583d 7a3e 1b48 ffbe
-0.63273644 0.0087396605 -1.080557 -0.3528341 -0.38507247 -0.13417023 0.092315905 -0.44303873
0.07773341 0.038690314 0.27679905 -0.6614336 0.054308534 0.040244147 -0.22050637 0.16784191
-0.1875711 0.083042204 0.21835768 -0.004177463 0.28732523 0.3176256 0.09570688 0.19885612
-0.08292631 -0.42583176 0.051848337 -0.43215862 -0.2802956 0.34193897 0.15719287 0.022347132
-0.82558477 0.18560232 0.013654759 -0.47296664 0.12096402 -0.1776948 -0.19260818 -0.44243455
-0.233587 -1.1101369 0.29981032 -0.25817335 -0.027534157 -0.10901507 -0.014083454 0.17046161
-0.29740682 0.6271025 0.1708116 -0.39527875 -0.31988034 -0.28293264 -0.100584924 -0.67453206
1.0245304 -0.09850799 0.1856571 0.37344736 -0.5022276 -0.52123314 -0.5295549 -0.47095436
-0.71426487 0.0148507785 -0.017195199 -0.6210459 0.36981836 -0.100335985 0.05988674 -0.07892476
-0.15378806 0.11273919 -0.38952017 -0.4800326 -0.75124425 -0.25465062 -0.83412445 -0.39898032
-0.0051005227 -0.020203179 0.84157175 0.2513715 -0.38926163 -0.38592085 -0.06681369 0.040125273
0.13444081 -0.16508807 0.037285823 0.47629905 -0.17171918 -0.085604995 0.06141241 0.560968
-0.41884586 0.053629655 0.17367615 -0.0424026 0.20415327 0.11064128 -0.19141664 0.09614597
0.405133 0.040422082 0.084541515 -0.18772967 -0.4151821 -0.17991008 0.55516917 0.37128717
-0.2494492 -0.008601 0.072205745 0.6465318 -0.6266086 -0.32431945 -0.1359936 0.12377807
0.38585603 0.36020598 -0.050898954 0.0068844757 0.21879728 -0.0070149596 -0.12391657 0.031802528
0.18911049 0.03862854 0.6227018 0.51971585 -0.1330912 -0.2832149 -0.08566335 -0.038600326
0.36714992 0.0040991297 0.07062055 -0.09748689 -1.4597929 -0.20479836 -0.1584956 0.67923343
-0.22310992 0.09968355 -0.15160863 -0.13363162 -0.12617584 0.15291388 0.3843257 -0.06847941
0.25777286 -0.19155982 -0.12538455 0.38207594 -0.14299084 0.48484817 -0.017090302 0.0045327735
-0.23463628 0.5307372 -0.28014046 -0.8599848 -0.4943554 -0.04644692 -0.6950558 0.037856434
-0.36697912 0.5038068 -0.023855219 0.70249414 0.18918116 0.282871 -0.1088053 -0.4862714
-0.9752632 0.18643968 -0.47963053 0.050256193 -0.7703227 -0.26093784 -0.6749778 0.064268336
-0.21864341 -0.47499627 -1.1445746 -0.46106282 -0.3056257 -0.49019277 -0.53470504 -0.28125408
-0.5882779 -0.15018694 -0.50680196 -0.15380113 -0.5305207 0.16790299 -0.16087528 -0.45301253
0.29822797 -0.65063226 0.30313903 -0.03687545 -0.5654416 0.1866574 0.043476854 -0.08645411
-0.38372377 -0.5188965 0.25359648 0.020862877 0.13259958 0.18823853 -0.14304276 0.27980125
0.43428072 -0.19822632 0.14702936 -0.25241888 0.10795575 -0.36215597 -0.07651836 -0.1438717
0.45858064 0.56169575 -0.55077016 0.40297875 -0.0940982 0.4809894 -0.487729 0.0684307
-0.605522 0.25610676 0.53755134 0.2030095 0.08275302 0.06906784 -0.061365943 0.21761404
0.132257 0.03328999 -0.46428868 -0.11003468 -0.2464995 0.2637898 -0.25330016 0.071542434
-0.10972539 -0.0982813 -0.06356751 0.35880694 0.293049 0.13645262 0.24437463 -0.498597

fc2.bias f4 [128]
00000000: b22e 273d e63f 453b f71e 783e cc5b 9bbe
00000010: e0a5 f83d f271 1cbd 65b9 28be b399 00be
00000020: 2cb7 cfbd d9b1 b0bc f807 3c3d 52a0 1bbe
00000030: 012d c6bd 3387 6b3d 5a61 6bbd 3275 f0bd
00000040: 9e9f 133d 0e28 2fbd c882 05be 390a fbbc
00000050: f1cb 3ebd f876 a23e 3360 58be 194d 3abe
00000060: 79ee 753d 55fd 4ebe 9011 173d 6c98 37be
00000070: 31db 10be 0730 93be 6cb8 c33d a365 023d
00000080: d3e7 f53c b334 f8bd f7e4 a03c 8f95 6dbe
00000090: 455b b5bc 0c03 c2bd 72a9 87bd 5b7c b9bd
000000a0: 2f0f c9bd 36cc 013e 473e 1fbe a599 26be
000000b0: 4ade 3b3d 2eb9 6dbe a129 07bd a986 dcbb
000000c0: 47e2 fe3d 2aca 37be 7fc7 06be 06a2 b0bc
000000d0: 6c5c 25be 71eb 04bd 0de7 e13c ad91 8f3d
000000e0: 5a11 3dbd 4041 6fbe 8c04 1d3e 1e79 02bd
000000f0: b12e bc3d bc7c 11be fd41 e5bd 50f9 72bd
00000100: cdfa 37be ef4d c5bd 71e8 89bc 33d8 5abd
00000110: 8345 e7bd 436a d9be 426f 28be 41de b1be
00000120: 73b2 4ebe 0224 3b3e cfdd d5bc 9721 4b3c
00000130: 5175 ebbd 1f63 9abe 0ae9 cdbd cc82 3ebe
00000140: 7704 f63d ea95 aebe 3543 8abe b82d 4cbf
00000150: 527f 8fbd 28af a7bd 2a40 b3be a006 e9bc
00000160: e78a c23d 53fa 0fbe 24da 02be 0424 d83d
00000170: b4bb b4b9 ff02 4cbe fbd0 aabd d86f ab3d
00000180: 548b efbd 1a29 0d3e 31fe a1be 08b6 de3c
00000190: 4e17 d0bc 9b20 3abd 405f 66be 42ff ff3b
000001a0: ad25 8dbd 2ebf 06bd 7cf3 a6bb c360 763e
000001b0: 63c0 45bd 26b4 efbc 14d7 debc 0782 9a3d
000001c0: 9772 4ebe 0b29 263f 0146 15be 19e1 0cbe
000001d0: d10b f7bc d9d2 0fbe 8e7e 68bd 5240 9bbe
000001e0: 8060 4bbd 0771 003e 2c02 ad3d 03be 12bd
000001f0: c2c1 efbd d5d0 21be 0cf3 76bb 8319 743b
0.040816016 0.00300979 0.24230562 -0.30343473 0.12141013 -0.038194604 -0.16476972 -0.12558632
-0.10142359 -0.02156918 0.045906037 -0.15197876 -0.096765526 0.057501983 -0.05746589 -0.11741103
0.036040895 -0.04276281 -0.1303817 -0.030644523 -0.046581212 0.3173139 -0.21130447 -0.18193473
0.06004188 -0.20213826 0.036881983 -0.17929238 -0.14146115 -0.2874758 0.0955666 0.03183521
0.030017769 -0.121194266 0.019640429 -0.23201583 -0.022138247 -0.094732374 -0.06624116 -0.09056922
-0.09817349 0.12675557 -0.155511 -0.16269548 0.04586629 -0.23215172 -0.032998685 -0.00672992
0.12445503 -0.17948213 -0.13162039 -0.021561634 -0.16148537 -0.032451097 0.027575994 0.07010207
-0.046159126 -0.23364735 0.15333766 -0.031853788 0.09188593 -0.14207739 -0.11194227 -0.059319794
-0.17966767 -0.09634005 -0.01683447 -0.05342884 -0.11292555 -0.42463884 -0.16448691 -0.3473988
-0.2018526 0.18275455 -0.026106743 0.012398145 -0.11496986 -0.30153748 -0.10054214 -0.18604583
0.1201257 -0.3409875 -0.270044 -0.7975726 -0.07006706 -0.08187705 -0.3500989 -0.028445542
0.0949915 -0.14060335 -0.12778527 0.105537444 -0.00034472125 -0.19923018 -0.08340641 0.08370942
-0.116964966 0.1378521 -0.31639245 0.027186409 -0.025401738 -0.04544125 -0.22497272 0.0078124115
-0.06891952 -0.032897167 -0.0050949436 0.24060349 -0.048279177 -0.029260706 -0.027202167 0.07544332
-0.201609 0.64906377 -0.14577486 -0.13757743 -0.030157002 -0.14045276 -0.056761317 -0.3032251
-0.049652576 0.12543117 0.0844768 -0.03582574 -0.11706878 -0.1580232 -0.0037681488 0.0037246651

fc3.weight f4 [64, 128]
00000000: b31b 84bf 7074 ba3e bee4 f23e bfb5 c0bf
00000010: 37d1 4d3f 87e9 33bf 2a45 603f 3c79 9c3f
00000020: 0bda 73be 537f 8d3f cfb1 133f 4e54 21c0
00000030: 64dc 043f 8d09 3b3e 0d0e 5f3f 6273 dcbe
00000040: 37a4 383f 309c cebf a580 92be bc89 f73e
00000050: 4700 01bf 0789 0abc 1eb0 c6bf be2c 1b3f
00000060: dde5 f1bf c274 233f 2682 243f 1e3d 6cbf
00000070: 7acb d83e 5262 32bf 1118 55bf 87d9 c5bf
00000080: f437 ff3e dd80 e4bf bf24 2b3f beab 363f
00000090: 3ca5 24bf f8a3 73bf a296 c3bf f270 0d3f
000000a0: cca4 76bf d406 a8bf d612 493f bc9d 1b3f
000000b0: 649c cb3e 7ae3 8abf 1188 5fbf 23a6 e03e
000000c0: d6b9 4c3e 4c25 2f3f 435c 403f 6c4b d7bf
000000d0: d519 1bc0 71dc 61bf 29f3 803f 7ee1 8b3e
000000e0: 1b4d edbf 9e87 023f 9746 ce3e 07ac d6be
000000f0: 3874 3f3f b7d6 a1bf f88e a1bf 5e65 013f
00000100: c742 f4bd 8a11 9fbf 5692 92bf 8c07 bd3e
00000110: 00b2 e5bf c485 a3bf 699b aebe 00af e8bf
00000120: 2035 bbbf 672c 983e fced 8ebf 47a5 81bf
00000130: f805 12bf f3c0 afbf 590a cdbf e228 90bf
00000140: a33f a33e 367d 9bbf 2e42 95bf 519c d2bd
00000150: b074 5fbf 9c60 e0bf 0ee6 0cbf f5d0 a9bf
00000160: c42d a7bf 7f3a bfbf 94b1 e3bf e8a5 1abf
00000170: dfc0 a0bf ad66 34bf 7aac 7e3e d8a6 d23c
00000180: c89e f7bf 916b 973e cd6a 83bf a2c6 603f
00000190: db76 49bf bdc2 703f 7cbd 7ebf 323b 72bf
000001a0: 4eb5 dfbf bb4a c4bf cd25 d13e d8e3 95bf
000001b0: d830 dabf 82c1 80bf 3f40 cdbf 8dfb 58be
000001c0: b3e3 4e3f b80c b9bc 883a 19c0 4de5 20bf
000001d0: 426b 3c3f 1676 223f 4fe1 203f 0ea8 213f
000001e0: 63b5 8fbf 3207 2f3f 01c9 d63e af08 abbf
000001f0: 672b a33e b5a5 c4bf 8949 693f 3d6a 1f3f
00000200: 4f40 b3be 1985 6bbf 1ee0 d23e 3751 4fbf
00000210: 3099 9f3c 089e 9c3e c43f 33bf 8d6f aab9
00000220: 5472 2f3d 3846 5fbe ec13 373f 7cc4 8cbf
00000230: 6e7e 9abf 33ae 563f c919 e4bf 420f 73bf
00000240: 8e62 44bf 53f3 8abe 37f4 d23d a062 6b3f
00000250: 217b 68be cd3c 0ebf 133c 61bf a2fc 633f
00000260: 9607 03c0 df31 5dbf e0e6 1fbe 56b4 9fbf
00000270: 7679 59be 1437 ec3e 6c5f 95bf 5526 c9be
00000280: 5029 103f b2e0 c0bf c277 f63e cbf7 e13e
00000290: f8b8 e5be d6cd 3cbf 442a 33bf 6d60 3f3e
000002a0: add7 8ebf 3a7f 2dbf a658 ff3e c94f b2be
000002b0: f438 39be 5c9b 4abe 73ba a83d e4a8 6c3e
000002c0: ece0 613e f090 e2bf c1e1 ad3f 3579 61bf
000002d0: b32c d4bf 92b0 60bf c837 53be e0ef dd3e
000002e0: 7ea2 b8bf d77e b8bd c88f 99be 7805 10bf
000002f0: 4318 1ebe 5ba9 abbf bec5 edbe c516 14bf
00000300: 6adb e03e 6fb8 8cbf 5342 c2bf b834 a6bf
00000310: 3023 1cbf f126 503f 488c c3bf 6657 f9bf
00000320: 2692 093f c53d 30bf b000 5bbf 37f7 ccbf
00000330: 3b4d b0bf 61b4 afbf 8dd9 40bf b81f 06bf
00000340: de1b 0f3d 990d 93bf 0bb4 47c0 3ad5 80be
00000350: 74bb 60bf 6fab 8bbf ba77 c9bd f286 acbf
00000360: e2a7 cdbf 8451 08c0 4088 6dbf 0d20 3cbf
00000370: 4c26 17c0 57c1 18bf 803f 6ebe f629 9bbd
00000380: aad0 f4bf d586 0b3f e8e2 44bf ffc7 073f
00000390: 5bb0 97bf 2c28 0dbd 7ec1 82bf e8d5 99bf
000003a0: 4174 45bf b57a 923e d960 5bbe f020 f73d
000003b0: 3253 60bf 9943 f6be 3840 bdbf e58c 95be
000003c0: 274a 993c 9d27 433d 5123 2fbf bf09 f63e
000003d0: 3057 7a3e 3023 c1be 760b 27bf 40f6 23bf
000003e0: c778 df3e 5973 33bf a136 0cbe f69a bfbf
000003f0: a623 143f 2018 6fbf 7d90 693e 7774 763e
-1.0320953 0.3641696 0.4744014 -1.5055465 0.8039736 -0.7027821 0.87605536 1.2224498
-0.23813646 1.1054481 0.5769319 -2.5207705 0.5189879 0.18265362 0.87130815 -0.4305678
0.7212557 -1.6141415 -0.28613773 0.4834727 -0.5039105 -0.008455521 -1.5522497 0.60615146
-1.8898274 0.63850033 0.6426109 -0.9228076 0.4234274 -0.69681275 -0.8323985 -1.5457009
0.49847376 -1.7851826 0.66852945 0.7135581 -0.6431463 -0.9517207 -1.5280344 0.55250466
-0.9634521 -1.3127084 0.78544366 0.6078756 0.39767754 -1.085067 -0.87316996 0.43876752
0.19992766 0.68416286 0.7514078 -1.6819892 -2.4234517 -0.8822699 1.0074207 0.27320474
-1.8539156 0.50988185 0.4028823 -0.4192812 0.7478671 -1.2643651 -1.2621756 0.505453
-0.11926799 -1.2427227 -1.1450908 0.3691982 -1.7944946 -1.2775197 -0.34102944 -1.8178406
-1.4625587 0.29721376 -1.1166377 -1.0128564 -0.5704036 -1.3730758 -1.6018783 -1.1262476
0.31884488 -1.2147586 -1.1660821 -0.10283721 -0.87287426 -1.7529483 -0.55038536 -1.3266894
-1.3060842 -1.4939727 -1.7788568 -0.604094 -1.255886 -0.7046917 0.24870482 0.025714323
-1.9345331 0.29574254 -1.0266968 0.8780309 -0.78696984 0.9404715 -0.9950788 -0.94621575
-1.7477205 -1.5335306 0.40849152 -1.1710157 -1.7046156 -1.0059054 -1.6035231 -0.21189709
0.8081619 -0.022589073 -2.3941975 -0.62849885 0.7360116 0.63461435 0.62843794 0.63147056
-1.122723 0.68370354 0.4195023 -1.3362025 0.3186905 -1.536307 0.9112783 0.6227148
-0.3501 -0.91999966 0.41186613 -0.809833 0.019482225 0.30589318 -0.70019174 -0.0003250804
0.04283364 -0.2180413 0.71514773 -1.0997462 -1.2069833 0.83859557 -1.7820369 -0.94945157
-0.7671288 -0.27138767 0.103004865 0.91947365 -0.2270322 -0.55561525 -0.8798229 0.8905736
-2.047338 -0.8640422 -0.15615416 -1.2476909 -0.2123774 0.4613577 -1.1669745 -0.39287058
0.5631304 -1.5068572 0.48138243 0.44134364 -0.44867682 -0.7375158 -0.6998637 0.18689127
-1.1159569 -0.6777226 0.4987232 -0.34826496 -0.18088132 -0.19785827 0.08238687 0.23111302
0.22058457 -1.7700481 1.358452 -0.8807557 -1.6576141 -0.87769425 -0.20626748 0.43347073
-1.4424589 -0.09008568 -0.2999251 -0.56258345 -0.15438943 -1.3411058 -0.46439928 -0.57847244
0.439174 -1.0993785 -1.517649 -1.2984838 -0.6099119 0.8130942 -1.5277185 -1.9479797
0.5373863 -0.6884425 -0.85547924 -1.6012944 -1.3773569 -1.3726922 -0.75331956 -0.5239215
0.034938686 -1.1488525 -3.120364 -0.2516268 -0.8778603 -1.0911692 -0.09837289 -1.3478682
-1.6066859 -2.1299753 -0.92786026 -0.73486406 -2.3617125 -0.59670013 -0.23266411 -0.07576363
-1.9126179 0.5450261 -0.7690873 0.53039545 -1.1850694 -0.03446214 -1.0215299 -1.2018404
-0.77130514 0.28609243 -0.21423663 0.12066829 -0.87626946 -0.48098448 -1.4785223 -0.29209056
0.018712116 0.0476452 -0.68413264 0.4805431 0.24447322 -0.37722158 -0.65251863 -0.6404762
0.43646833 -0.7009788 -0.13692714 -1.4969165 0.57866895 -0.93396187 0.22809024 0.24067865

fc3.bias f4 [64]
00000000: e2d0 72bd 65c6 7b3e f98c 84bd 4979 1f3e
00000010: 8460 a3bd ada6 9bbd 40fb c8bd fb72 633e
00000020: 9754 6cbd 506f cc3d 2ac9 8bbd d06e a23e
00000030: 530b 74bd e184 80bd 3778 b3bd 9237 9abd
00000040: 25df d5bd f18b 763d 7154 b93e 73a6 67bd
00000050: 051f e8bd fac9 83bd 251e 91bd 2759 89bd
00000060: a078 adbd 9dad dbbd 4fde 79bd 6aeb 83bd
00000070: 629e ecbd 914b fabd 01c3 a7bd 7ce8 1cbe
00000080: d933 a93e b4de 82bd bab0 cdbd 6f96 aabd
00000090: 4eca c6bc 7cff 0fbe e6bb c53e 20af 513e
000000a0: 3c79 a5bd 800f cebd caf2 d7bd 4426 153e
000000b0: b4f5 b6bd 1ba8 8fbd ab96 f3bd 798a c63d
000000c0: f3f2 95bd 3c92 51be 10c4 023e e6b7 92bd
000000d0: 14e5 99bd cb7a 18be a375 d0bd fa98 93bd
000000e0: 2307 84bd c2fc 88bd 9ad3 a0bd 77d4 9abd
000000f0: 9765 ecbd 9e6b 583e 7f2f 943e 055c 43bd
-0.059281237 0.245874 -0.06472201 0.1557361 -0.07977393 -0.0760015 -0.09813547 0.2221183
-0.05769786 0.09982169 -0.068254784 0.31725168 -0.059581112 -0.06275345 -0.087631635 -0.075301304
-0.10442952 0.060192052 0.36197236 -0.056555223 -0.113340415 -0.06435008 -0.07085828 -0.067064576
-0.08470273 -0.107264735 -0.061003026 -0.06441386 -0.115536466 -0.122214444 -0.08191491 -0.15323061
0.3304737 -0.063901335 -0.100434735 -0.08329474 -0.024266388 -0.14062303 0.38619918 0.20476961
-0.08079764 -0.1006155 -0.10544355 0.14565378 -0.08933583 -0.070144854 -0.11893972 0.0969438
-0.073217295 -0.2046594 0.12770104 -0.07163982 -0.07514396 -0.14890592 -0.101786874 -0.07206912
-0.06446674 -0.06688835 -0.0785286 -0.07560056 -0.11542814 0.21134803 0.28942487 -0.04769518

fc4.weight f4 [3, 64]
00000000: b0f5 36c0 4bb7 bfbd fca6 2f3f 7100 31c0
00000010: 32a3 32c0 7a1d 2bc0 8780 303f 696b 563d
00000020: 2781 333f a787 76bd 6332 2f3f e31f f6bd
00000030: 2440 38c0 5069 293f 09f7 273f 74ab 2f3f
00000040: 04b3 2c3f dcfa 16c0 3e75 69be e915 383f
00000050: 3869 3a3f 4205 32c0 861d 383f 1d84 2dc0
00000060: c355 2d3f d2e5 353f 8fa1 7a3c 33b6 353f
00000070: a5d5 2f3f a872 3b3f 80d3 3a3f 4f01 453f
00000080: 8545 f6bd 1e0f 373f 31d6 2f3f bc09 34c0
00000090: d756 49c0 f5c5 383f ae78 36be f873 bdbf
000000a0: ee88 3fc0 c30f 3a3f 573d bf3e 616b 3dc0
000000b0: 3d5a 343f f1a7 393f 196a 2a3f 70f7 febf
000000c0: a12f 2ec0 d34f 453f 3e63 63c0 8c6f 2d3f
000000d0: 05da 2b3f 226a 383f ecd3 3b3f c41b 313f
000000e0: 7200 323f 67a9 2b3f 0839 3d3f d291 36c0
000000f0: afc6 3b3f 53bc 50bb 3056 56be 0433 2d3f
00000100: 605e 42c0 96e0 9fc0 38cd 183f 28d2 a23c
00000110: 9345 3fc0 0e3a 3ec0 88b5 1e3f 08ee f53c
00000120: 7107 2f3f 9540 90c0 0e49 193f d9d3 81c0
00000130: 403a 46c0 55bb 243f 5123 353f 7efd 243f
00000140: d94f 2f3f 9f50 0b3d a20f 1abe d924 1f3f
00000150: cd11 433f cfcc 3fc0 b090 2a3f 591b 3cc0
00000160: adfb 263f 868d 3b3f 750e 37c0 af7d 303f
00000170: 9be9 353f e2e5 3d3f 45f2 413f 3a6c 403f
00000180: c97c 85c0 2128 223f fc9b 2c3f ce46 47c0
00000190: 849e 5cc0 7852 443f 6ff8 17be 0f72 bebf
000001a0: 1539 4cc0 2250 393f 2c57 f53e 2526 31bd
000001b0: 7465 343f 6f74 2c3f 0a5b 343f a4ef 0cc0
000001c0: 5a64 3dc0 ab77 453f e16c 44bd 9cf5 1b3f
000001d0: 9537 293f 9894 303f 1862 3c3f 9a12 263f
000001e0: 6101 3a3f e1fa 183f 8dd6 293f cde9 43c0
000001f0: 042d 293f 8632 1b3d b52f 4ebe d5a6 2a3f
00000200: c6e2 48c0 db6e ecbd 89cd 313f c4cb f23b
00000210: efcd 42c0 c9a1 40c0 bd62 253f 41fe 34c0
00000220: ad96 2f3f 909a 5d3c 7373 2a3f 3905 dfbd
00000230: b94b 4bc0 fa64 273f 0487 2d3f 6552 223f
00000240: 4b90 383f 7f78 cc3c 5174 80c0 e812 293f
00000250: 1428 443f b978 41c0 f630 293f f61f 3fc0
00000260: f9fb 293f 7745 323f d090 f93c 46c4 343f
00000270: c6e5 423f 37df 333f 264f 3b3f 783b 483f
00000280: 3099 f9bd 73ac 2e3f 76f4 233f f889 48c0
00000290: 3889 53c0 f644 3e3f f165 83c0 4053 d8bf
000002a0: a12c 4ec0 5b0f 493f 4200 e13e b137 0ebd
000002b0: 235d 283f 2b60 303f dc3b 233f f1cf 0ec0
000002c0: a5e1 3bc0 2fea 413f 8531 35bd c0fc 293f
000002d0: 3886 2b3f b6e1 293f 7b37 363f 49cc 313f
000002e0: 3b59 2f3f b511 263f e59e 2f3f d019 49c0
000002f0: ac89 2f3f f766 70c0 768f 96c0 8b8b 283f
-2.8587456 -0.09361132 0.6861417 -2.765652 -2.7912107 -2.673674 0.6894612 0.052348528
0.70118946 -0.060187962 0.6843626 -0.12017801 -2.8789148 0.6617632 0.6561132 0.6862099
0.67460656 -2.3590612 -0.2279863 0.7190843 0.728168 -2.781571 0.7192005 -2.7111886
0.67708987 0.710538 0.015297308 0.7098114 0.6868537 0.73221827 0.72978973 0.7695512
-0.120249785 0.7150744 0.68686205 -2.8130941 -3.1459253 0.7217706 -0.17819473 -1.4801016
-2.9927325 0.726803 0.37351486 -2.959679 0.7045019 0.72521883 0.6656814 -1.9919262
-2.721657 0.7707493 -3.5529323 0.6774833 0.67129546 0.72036946 0.7337024 0.6918299
0.6953193 0.6705536 0.7391515 -2.8526502 0.7335004 -0.0031850531 -0.20931315 0.6765597
-3.0370102 -4.9961653 0.5968814 0.019875601 -2.9886215 -2.9722934 0.61995745 0.030020729
0.6837073 -4.5078835 0.598771 -4.0571103 -3.0973053 0.64348346 0.70757014 0.644493
0.6848121 0.034012433 -0.15045026 0.621656 0.76199037 -2.9968755 0.66627026 -2.9391692
0.65227777 0.7326282 -2.8602574 0.6894178 0.7105958 0.741789 0.757603 0.7516514
-4.1714826 0.6334248 0.67425513 -3.1136966 -3.447175 0.7668834 -0.14840864 -1.4878558
-3.190984 0.723879 0.4791807 -0.043249268 0.70467305 0.67365164 0.70451415 -2.2021265
-2.95925 0.77135724 -0.047955398 0.60921645 0.66100436 0.68976736 0.7358718 0.64872134
0.72658354 0.5975781 0.66343004 -3.061145 0.66084313 0.03788998 -0.20135386 0.66660815
-3.1388412 -0.115445815 0.69454247 0.0074095447 -3.0438192 -3.0098746 0.6460379 -2.8280184
0.6858929 0.01352562 0.6658241 -0.10889668 -3.1764967 0.65388453 0.6778414 0.63406974
0.72095174 0.0249598 -4.014199 0.66044474 0.76623654 -3.0229933 0.66090333 -2.9863257
0.66400105 0.69637245 0.03046456 0.7061199 0.76131856 0.70262474 0.73167646 0.7821574
-0.12187421 0.68231887 0.6404489 -3.133421 -3.3052502 0.74323976 -4.106194 -1.6900406
-3.221474 0.78539056 0.4394551 -0.03472108 0.65767115 0.6889674 0.63763213 -2.2314417
-2.9356472 0.7574796 -0.04423668 0.6640129 0.67001677 0.6636003 0.71178406 0.6945234
0.6849553 0.6487077 0.6860183 -3.1422005 0.68569446 -3.7562845 -4.7050123 0.65837926

fc4.bias f4 [3]
00000000: dc49 1842 d33d 1642 1a90 1642
38.07213 37.560375 37.640724
